PA1 - Threshold Logic Units/2dsynB_Model.npz (npz, 17026 bytes, 3 tensors)

w f4 [2, 8]
-11.448721 -10.674325 -7.6805525 -2.9426715 -0.13090995 -4.982317 -11.467402 -1.1348753
7.3709536 -4.053439 5.082813 4.128414 0.010656737 7.464244 9.452145 1.3916162
00000000: f62d 37c1 09ca 2ac1 16c7 f5c0 bb54 3cc0
00000010: 420d 06be 246f 9fc0 7b7a 37c1 9843 91bf
00000020: dade eb40 c6b5 81c0 67a6 a240 f81b 8440
00000030: 9899 2e3c 16db ee40 fc3b 1741 7b20 b23f

b f4 [4000, 1]
0.2543611 0.049890917 0.06258309 0.012936975 -0.30575448 0.20378137 -0.16280228 0.3554602
0.12551019 0.37718773 -0.1385587 -0.04206309 -0.20911255 -0.3376626 -0.031204911 0.24526997
0.043907974 0.3318495 -0.12967107 -0.032007176 0.26066053 0.29002512 -0.10704932 -0.28016156
-0.053563062 0.15638876 0.31488612 -0.03175453 -0.035817884 -0.20320655 0.31104648 -0.3853334
-0.2437937 0.2509245 -0.053704064 0.13674496 0.08061673 -0.12736309 -0.0447056 -0.24804784
-0.055046 -0.14956777 0.1573262 0.38368306 -0.28093973 0.11302025 -0.31064317 -0.043029197
0.3402753 0.18974541 -0.41165498 0.083447866 -0.12110262 0.32325655 0.36559105 -0.07857897
-0.068833426 0.123674884 -0.17082414 0.2774144 -0.20611499 0.14625072 0.09134884 0.037392285
0.11443173 -0.24803577 0.3663761 0.048033185 0.1889753 -0.30718035 -0.1982902 0.104274
0.13282311 -0.35742977 -0.1772925 0.34524143 -0.36883655 0.21853876 0.36295494 -0.32608378
-0.25851336 -0.16630556 -0.012818881 0.3738622 0.2657997 0.36130604 0.29882112 -0.21104057
-0.040185936 0.2837532 -0.021075526 0.061816216 0.14121601 -0.008024969 0.31382164 -0.15587457
0.00569607 0.39095372 0.36920395 -0.3637246 0.38105497 0.38616502 0.40620342 0.26727998
-0.18608293 -0.1432026 0.014453116 -0.01870674 -0.38136658 0.26948637 0.17146145 -0.29977253
0.045357645 0.17103066 -0.09535423 0.32016388 -0.021426938 -0.25794026 0.024656521 0.08920058
0.059747044 0.04484818 0.33628324 -0.27899042 -0.009973929 0.20939718 0.33495933 0.29351646
-0.101068065 -0.06707366 -0.31833407 -0.12330364 -0.1281449 0.3020511 -0.06042447 -0.31775227
0.39408046 0.3974527 -0.1366019 -0.02489509 -0.14259247 0.29763094 -0.40945503 0.21241844
0.18860865 -0.3892369 0.036205336 -0.1653726 0.04055595 -0.20276603 -0.25680405 0.23267825
0.029494723 0.13571292 -0.3419969 0.3399219 -0.39538047 0.27193055 -0.12529291 -0.21264404
0.15848732 0.19159529 -0.12813446 0.13387217 -0.14860699 -0.056153383 0.3597098 0.135005
-0.26193672 -0.40693 -0.39840788 -0.3501417 0.24565443 0.40269306 0.062666625 0.17927523
-0.016984252 -0.2997775 -0.25982264 -0.15989791 0.12837051 0.13732786 0.23630214 -0.22164844
0.002043466 -0.18597075 0.13855542 0.25390455 0.16153815 -0.09403862 -0.14125526 -0.32123688
0.066363074 0.30614138 0.121802635 0.059563797 0.13690561 -0.3616471 0.13143376 0.15413591
-0.33061704 -0.24510418 -0.08992682 0.06998089 -0.06100978 0.2953451 -0.123502955 0.012116764
-0.16133948 0.36537716 -0.32772094 0.26549047 -0.2900153 -0.2508313 0.08444958 -0.045310073
-0.07846605 -0.07906663 -0.20888253 -0.37350422 -0.0058393427 -0.34269872 -0.2642883 -0.3701753
0.1389937 0.37854764 -0.2895033 0.36963105 -0.18545479 -0.25925195 0.37844676 0.4109382
-0.00068262836 0.35662952 0.37455794 -0.39473993 -0.33385485 0.14220075 0.24265221 0.15065852
0.34173238 0.31991413 0.12100259 -0.009828482 -0.07041859 0.1845338 -0.089219175 0.12464537
-0.3510303 -0.008214081 -0.30751315 0.15357287 0.084105924 0.32644063 -0.15836348 -0.2884421
00000000: 9e3b 823e 6b5a 4c3d 902b 803d 9bf5 533c
00000010: da8b 9cbe 10ac 503e a4b5 26be e1fe b53e
00000020: be85 003e c01e c13e 55e2 0dbe 594a 2cbd
00000030: 9a21 56be 1de2 acbe 71a1 ffbc 0d28 7b3e
00000040: d9d8 333d 2de8 a93e 7ec8 04be f519 03bd
00000050: 4c75 853e 2c7e 943e ad3c dbbd 5671 8fbe
00000060: f164 5bbd 6024 203e c138 a13e 0a11 02bd
00000070: c6b5 12bd 6115 50be 7c41 9f3e 6b4a c5be
00000080: 0ea5 79be 2d79 803e cbf8 5bbd df06 0c3e
00000090: 621a a53d 786b 02be 381d 37bd 4100 7ebe
000000a0: ea77 61bd 4b28 19be 1f1a 213e 1b72 c43e
000000b0: 55d7 8fbe 2977 e73d 9f0c 9fbe 623f 30bd
000000c0: 9038 ae3e 9f4c 423e 71c4 d2be b7e6 aa3d
000000d0: a704 f8bd e281 a53e c02e bb3e 03ee a0bd
000000e0: 8af8 8cbd 4249 fd3d 86ec 2ebe 4309 8e3e
000000f0: cf0f 53be c0c2 153e 1a15 bb3d a728 193d
00000100: 2f5b ea3d 17fd 7dbe a695 bb3e 72be 443d
00000110: be82 413e be46 9dbe 960c 4bbe 9b8d d53d
00000120: c802 083e 0901 b7be 2a8c 35be 7cc3 b03e
00000130: 25d8 bcbe a0c8 5f3e 3bd5 b93e 74f4 a6be
00000140: dd5b 84be 014c 2abe 4906 52bc de6a bf3e
00000150: e616 883e 1bfd b83e 15ff 983e 051b 58be
00000160: 029a 24bd 1948 913e 95a6 acbc 0033 7d3d
00000170: ee9a 103e 297b 03bc 3bad a03e 959d 1fbe
00000180: 19a6 ba3b 162b c83e 4d08 bd3e 1c3a babe
00000190: a319 c33e 6cb7 c53e e5f9 cf3e ecd8 883e
000001a0: 868c 3ebe b4a3 12be c3cc 6c3c e13e 99bc
000001b0: 7b42 c3be 1efa 893e 9793 2f3e c97b 99be
000001c0: f0c8 393d a922 2f3e 1449 c3bd 85ec a33e
000001d0: 8c87 afbc bf10 84be 79fc c93c cbae b63d
000001e0: 51b9 743d bab2 373d 512d ac3e d5d7 8ebe
000001f0: b169 23bc 376c 563e ca7f ab3e ca47 963e
00000200: c6fc cebd ea5d 89bd affc a2be 9e86 fcbd
00000210: 6b38 03be 71a6 9a3e a67f 77bd 6db0 a2be
00000220: eac4 c93e ec7e cb3e 5ee1 0bbe caf0 cbbc
00000230: c303 12be 1563 983e 17a4 d1be 3884 593e
00000240: a022 413e 0f4a c7be 0c4c 143d 6f57 29be
00000250: ff1d 263d e6a1 4fbe d27b 83be 3543 6e3e
00000260: eb9e f13c 54f8 0a3e 381a afbe 3e0a ae3e
00000270: 4f6f cabe 7b3a 8b3e c94c 00be 5cbf 59be
00000280: 804a 223e 8e31 443e ae35 03be c915 093e
00000290: 6e2c 18be 1701 66bd e22b b83e c03e 0a3e
000002a0: 921c 86be 2159 d0be 1efc cbbe c645 b3be
000002b0: d68c 7b3e c92d ce3e 5c57 803d ed93 373e
000002c0: 8f22 8bbc 707c 99be 7907 85be 47bc 23be
000002d0: 8f73 033e ad9f 0c3e 30f9 713e cff7 62be
000002e0: aceb 053b 1e6f 3ebe 79e1 0d3e c7ff 813e
000002f0: 426a 253e 5297 c0bd 38a5 10be 2979 a4be
00000300: 5de9 873d 90be 9c3e a973 f93d 2bf9 733d
00000310: fc30 0c3e cf29 b9be 9296 063e ced5 1d3e
00000320: a346 a9be 97fc 7abe 8d2b b8bd 2452 8f3d
00000330: 64e5 79bd 7937 973e 1eef fcbd 6485 463c
00000340: 2d36 25be b712 bb3e 0acb a7be 5eee 873e
00000350: e37c 94be f66c 80be e7f3 ac3d 0e97 39bd
00000360: cfb2 a0bd afed a1bd 4de5 55be f23b bfbe
00000370: f557 bfbb 3576 afbe cc50 87be 9e87 bdbe
00000380: 5d54 0e3e ffd0 c13e c739 94be 4840 bd3e
00000390: dce7 3dbe acbc 84be c6c3 c13e 7e66 d23e
000003a0: 6af2 32ba 2598 b63e 0fc6 bf3e 5a1b cabe
000003b0: 06ef aabe 139d 113e d279 783e 3a46 1a3e
000003c0: 8cf7 ae3e c9cb a33e 35d0 f73d a407 21bc
000003d0: 9f37 90bd 6ef6 3c3e 8bb8 b6bd 1246 ff3d
000003e0: 3eba b3be 5a94 06bc 5d72 9dbe 3542 1d3e
000003f0: ba3f ac3d 3a23 a73e 092a 22be afae 93be

uniquetags f4 [8]
1.0 2.0 3.0 4.0 5.0 6.0 7.0 8.0
00000000: 0000 803f 0000 0040 0000 4040 0000 8040
00000010: 0000 a040 0000 c040 0000 e040 0000 0041
