PA1 - Threshold Logic Units/2dsynA_Model.npz (npz, 994 bytes, 3 tensors)

b f4 [10, 1]
0	0x3e552c82	0.2081776
1	0xbd86fafd	-0.06590841
2	0xbd20a49e	-0.03921949
3	0x3e9f0bf3	0.31063804
4	0xbe7e0cc3	-0.24809556
5	0x3dfb8446	0.122810885
6	0xbe2184e4	-0.1577335
7	0xbe40b2de	-0.18818232
8	0xbeaa9cfa	-0.3332289
9	0xbe38666e	-0.18007824

uniquetags f4 [2]
0	0x00000000	0.0
1	0x3f800000	1.0

w f4 [2, 2]
0	0xc01d0fb2	-2.454083
1	0x3f0ab6f4	0.54185414
2	0xbee15ccf	-0.4401612
3	0xbf519d1c	-0.81880355
