PA1 - Threshold Logic Units/3dsynC_Model.npz (npz, 2594 bytes, 3 tensors)

w f4 [3, 4]
0	0x3e3716c7	0.17879783
1	0x3fe0c3cb	1.7559751
2	0x3ee9871e	0.456109
3	0xc014262a	-2.3148293
4	0x3bef0d8c	0.007295316
5	0x4027cee2	2.6220021
6	0xbf92d424	-1.147099
7	0x3f765ee5	0.9623855
8	0xbf5dad9d	-0.8659304
9	0xbfbecdbc	-1.4906535
10	0xbecc4d15	-0.3990256
11	0xbec8505b	-0.39123806

b f4 [400, 1]
0	0xbe96c3c0	-0.2944622
1	0xbe22f299	-0.15912856
2	0x3e7274e0	0.23677397
3	0xbe037d2d	-0.1284072
4	0x3e662a01	0.2247696
5	0x3d349457	0.04408678
6	0x3d6284c2	0.05530239
7	0x3c3b4d00	0.011431932
8	0xbe8a5591	-0.27018407
9	0x3e38655c	0.18007416
10	0xbe1350ac	-0.14386243
11	0x3ea0d2a9	0.3141072
12	0x3de32423	0.11090877
13	0x3eaaa738	0.33330703
14	0xbdfac170	-0.122439265
15	0xbd183f2c	-0.03716962
16	0xbe3d3850	-0.18478513
17	0xbe98c547	-0.2983801
18	0xbce1e436	-0.02757464
19	0x3e5df013	0.21673612
20	0x3d1eec9e	0.038799874
21	0x3e9623fc	0.2932433
22	0xbdeaabd9	-0.114585586
23	0xbce7b2f4	-0.028283574
24	0x3e6bdd40	0.23033619
25	0x3e8337bd	0.25628462
26	0xbdc1bb54	-0.09459558
27	0xbe7d829c	-0.24756855
28	0xbd41dee9	-0.047331724
29	0x3e0d8300	0.13819504
30	0x3e8e773a	0.27825338
31	0xbce5dec2	-0.02806032
32	0xbd01a46f	-0.031650957
33	0xbe37e035	-0.17956622
34	0x3e8cba82	0.27486044
35	0xbeae56ae	-0.34050506
36	0xbe5c9a19	-0.21543159
37	0x3e630dee	0.22173283
38	0xbd42618f	-0.04745632
39	0x3df77924	0.120836526
40	0x3d91e542	0.071238056
41	0xbde67e94	-0.112546116
42	0xbd21cfaf	-0.039504703
43	0xbe60738f	-0.21919082
44	0xbd473cfc	-0.048642144
45	0xbe0756f0	-0.13216758
46	0x3e0e5c28	0.13902342
47	0x3ead9788	0.33904672
48	0xbe7e36df	-0.24825619
49	0x3dcc899f	0.09987187
50	0xbe8c8bca	-0.274504
51	0xbd1bbe5a	-0.03802333
52	0x3e99f3e3	0.30068883
53	0x3e2bb1f8	0.16767108
54	0xbeba3f56	-0.36376446
55	0x3d9704e8	0.07373983
56	0xbddb2a23	-0.10701396
57	0x3e9240b8	0.28565
58	0x3ea5680d	0.32305947
59	0xbd8e352d	-0.06943736
60	0xbd792440	-0.060825586
61	0x3ddfd1db	0.10928699
62	0xbe1a92ea	-0.15095106
63	0x3e7b063d	0.24514098
64	0xbe3a81f0	-0.1821363
65	0x3e04568d	0.12923642
66	0x3da55163	0.08072164
67	0x3d075741	0.033042196
68	0x3dcf178e	0.101119146
69	0xbe6070c4	-0.21918017
70	0x3ea5c2fa	0.32375318
71	0x3d2ddafd	0.04244517
72	0x3e2aff94	0.16699058
73	0xbe8afab7	-0.27144405
74	0xbe336d59	-0.17522182
75	0x3dbcb589	0.092143126
76	0x3df0602c	0.11737093
77	0xbea1b6c8	-0.31584764
78	0xbe206d4a	-0.1566669
79	0x3e9c3315	0.30507722
80	0xbea6dff4	-0.32592738
81	0x3e45bfde	0.19311473
82	0x3ea436ba	0.32073003
83	0xbe93882e	-0.28814834
84	0xbe69ebde	-0.22843882
85	0xbe167c32	-0.14695814
86	0xbc39974e	-0.011327578
87	0x3ea9260c	0.3303684
88	0x3e7083b9	0.23487748
89	0x3ea377bf	0.31927297
90	0x3e873285	0.2640573
91	0xbe3ef6ef	-0.18648885
92	0xbd1173d2	-0.035510845
93	0x3e80614c	0.25074232
94	0xbc9890ad	-0.018623674
95	0x3d5fbe2f	0.054624733
96	0x3dff908e	0.124787435
97	0xbbe85ebd	-0.007091372
98	0x3e8dfbef	0.27731273
99	0xbe0d0be3	-0.13774066
100	0x3ba4ef4b	0.0050334088
101	0x3eb0e1a5	0.34547153
102	0x3ea70a82	0.32625204
103	0xbea48fdf	-0.32141015
104	0x3eac6723	0.33672437
105	0x3eaeb701	0.34123996
106	0x3eb7c7eb	0.35894713
107	0x3e71daa1	0.23618557
108	0xbe286191	-0.16443469
109	0xbe019477	-0.12654291
110	0x3c51405b	0.012771691
111	0xbc876ae6	-0.016530465
112	0xbeac8b3b	-0.33699974
113	0x3e73d9bb	0.23813526
114	0x3e1b268c	0.15151423
115	0xbe87a0b8	-0.26489806
116	0x3d242bdd	0.040080894
117	0x3e1ac2c1	0.15113355
118	0xbdac910f	-0.08426105
119	0x3e90da84	0.28291714
120	0xbc9b1be7	-0.018934203
121	0xbe69671c	-0.2279324
122	0x3cb27ce4	0.021788068
123	0x3da16e1b	0.07882329
124	0x3d5840ea	0.052796282
125	0x3d2253cd	0.0396307
126	0x3e982584	0.29716122
127	0xbe7c7350	-0.24653363
128	0xbc1066e8	-0.008813597
129	0x3e3d7a3f	0.18503664
130	0x3e978c2d	0.29599133
131	0x3e84cc1e	0.2593698
132	0xbdb6e83e	-0.089310154
133	0xbd72c5ab	-0.059270542
134	0xbe900694	-0.2813002
135	0xbddf25db	-0.10895892
136	0xbde7e8ca	-0.11323698
137	0x3e88a8a1	0.26691154
138	0xbd5ab49c	-0.0533949
139	0xbe8fc331	-0.28078607
140	0x3eb24bcc	0.34823453
141	0x3eb3d262	0.35121447
142	0xbdf736dc	-0.120710105
143	0xbcb43701	-0.021998884
144	0xbe010722	-0.12600377
145	0x3e86a8ab	0.26300558
146	0xbeb94088	-0.36182046
147	0x3e40361d	0.18770643
148	0x3e2aaaa4	0.16666657
149	0xbeb01acc	-0.34395444
150	0x3d030b71	0.031993333
151	0xbe15a414	-0.14613372
152	0x3d12caac	0.035837814
153	0xbe377a28	-0.17917693
154	0xbe685fe9	-0.22692837
155	0x3e528b3d	0.20560928
156	0x3cd582ef	0.02606341
157	0x3df59b01	0.11992455
158	0xbe9abb4b	-0.30221018
159	0x3e99caf5	0.30037656
160	0xbeb2e25e	-0.3493833
161	0x3e760fea	0.24029508
162	0xbde2bf7a	-0.110716775
163	0xbe406a5f	-0.18790577
164	0x3e0f6920	0.14004946
165	0x3e2d5e7d	0.16930576
166	0xbde7e3f3	-0.11322775
167	0x3df24631	0.11829794
168	0xbe067860	-0.13131857
169	0xbd4b3f12	-0.049620695
170	0x3ea2bedd	0.31786242
171	0x3df45306	0.11929898
172	0xbe6d04e1	-0.23146392
173	0xbeb81c13	-0.3595892
174	0xbeb44103	-0.3520585
175	0xbe9e6aa7	-0.30940744
176	0x3e5e4922	0.21707585
177	0x3eb63156	0.35584515
178	0x3d62d22a	0.05537621
179	0x3e223895	0.15841897
180	0xbc75e5a3	-0.015008363
181	0xbe87a14b	-0.26490244
182	0xbe6b1b28	-0.22959578
183	0xbe10afe2	-0.14129594
184	0x3de8514f	0.113436334
185	0x3df88733	0.12135162
186	0x3e55d2b4	0.20881158
187	0xbe489037	-0.19586264
188	0x3aecae75	0.0018057363
189	0xbe284795	-0.16433556
190	0x3dfabfea	0.12243636
191	0x3e65c03f	0.22436617
192	0x3e122bd7	0.14274536
193	0xbdaa2f8b	-0.08309849
194	0xbdffa2bc	-0.12482211
195	0xbe9156cb	-0.2838653
196	0x3d703340	0.058642626
197	0x3e8a8261	0.27052596
198	0x3ddc6e74	0.10763255
199	0x3d57971e	0.05263435
200	0x3df7c392	0.12097849
201	0xbea39f40	-0.31957436
202	0x3deddc7f	0.11614322
203	0x3e0b7922	0.13620427
204	0xbe95953c	-0.2921542
205	0xbe5dc9ab	-0.21658961
206	0xbda2be91	-0.07946504
207	0x3d7d4b79	0.061839554
208	0xbd5cd2f3	-0.053912114
209	0x3e859fea	0.26098567
210	0xbddf8233	-0.109135054
211	0x3c2f6d02	0.010707142
212	0xbe11fdd2	-0.14256981
213	0x3ea54f47	0.32287046
214	0xbe9445cc	-0.289595
215	0x3e703c19	0.23460425
216	0xbe83369a	-0.25627595
217	0xbe62f857	-0.22165047
218	0x3d98d500	0.074625015
219	0xbd23ffc9	-0.040038858
220	0xbd8e00dd	-0.069337584
221	0xbd8f171b	-0.06986829
222	0xbe3d0307	-0.18458186
223	0xbea8fc95	-0.33005205
224	0xbba91555	-0.0051600137
225	0xbe9b0c94	-0.30283034
226	0xbe6f259d	-0.23354192
227	0xbea77b04	-0.3271104
228	0x3dfb8af7	0.12282365
229	0x3eab44ba	0.33450872
230	0xbe82fb4c	-0.2558235
231	0x3ea73bfa	0.32662946
232	0xbe27d010	-0.16387963
233	0xbe6a96f5	-0.22909148
234	0x3eab390b	0.33441958
235	0x3eb9ec51	0.36313108
236	0xba1e20fe	-0.0006032138
237	0x3ea15a18	0.3151405
238	0x3ea976a0	0.33098316
239	0xbeb2982d	-0.34881726
240	0xbe970c40	-0.29501534
241	0x3e00ac64	0.12565762
242	0x3e5b91ad	0.2144229
243	0x3e08539b	0.13313143
244	0x3e9a9ca7	0.3019764
245	0x3e90bd96	0.28269643
246	0x3ddafbcb	0.10692557
247	0xbc0e4bd3	-0.00868507
248	0xbd7ee10b	-0.062226336
249	0x3e26fab8	0.16306579
250	0xbda176b9	-0.07883973
251	0x3de19379	0.11014456
252	0xbe9ed192	-0.31019264
253	0xbbedd892	-0.007258483
254	0xbe8b2143	-0.27173814
255	0x3e0af6b5	0.13570674

uniquetags f4 [4]
0	0x00000000	0.0
1	0x3f800000	1.0
2	0x40000000	2.0
3	0x40400000	3.0
