PA1 - Threshold Logic Units/irisModel.npz (npz, 1350 bytes, 3 tensors)

w f4 [4, 3]
-4.887077 -9.408221 -2.6021311 -0.7972555 -5.4035664 -2.9449239 -7.233244 -4.808321
1.9542589 -2.8955524 -1.6166254 1.3620504
00000000: ef62 9cc0 1388 16c1 5189 26c0 f018 4cbf
00000010: 04ea acc0 a279 3cc0 bc76 e7c0 c4dd 99c0
00000020: 2825 fa3f bb50 39c0 95ed cebf ab57 ae3f

b f4 [90, 1]
-0.2681619 -0.14491577 0.21562617 -0.11693832 0.20469399 0.040149108 0.050362978 0.010410873
-0.24605222 0.16399057 -0.13101315 0.2860523 0.1010028 0.30353725 -0.11150343 -0.03384976
-0.16828078 -0.2717299 -0.025111772 0.19737804 0.03533441 0.26705185 -0.104351215 -0.025757387
0.2097634 0.23339419 -0.086146645 -0.22545663 -0.043104224 0.12585196 0.2534008 -0.025554074
-0.028824005 -0.16352801 0.2503109 -0.3100924 -0.19619001 0.20192845 -0.043217693 0.110043846
0.064875335 -0.1024939 -0.035976287 -0.19961348 -0.044297602 -0.12036285 0.12660635 0.30876428
-0.22608283 0.09095167 -0.2499863 -0.03462722 0.2738324 0.15269531 -0.33127433 0.067153655
-0.09745587 0.26013678 0.29420495 -0.06323547 -0.055392865 0.09952586 -0.13746865 0.22324587
-0.16586854 0.11769349 0.07351187 0.030090986 0.092087545 -0.19960378 0.29483673 0.038654123
0.15207559 -0.24719965 -0.15957163 0.08391323 0.10688779 -0.28763726 -0.14267398 0.27782884
-0.29681674 0.17586641 0.2920836 -0.26241198 -0.20803548 -0.13383238 -0.010315839 0.3008611
0.21389908 0.29075664
00000000: 844c 89be cd64 14be 1bcd 5c3e 5c7d efbd
00000010: 4d9b 513e 6473 243d 6949 4e3d 5e92 2a3c
00000020: 1df5 7bbe 25ed 273e 5028 06be 7275 923e
00000030: 8eda ce3d 3c69 9b3e e95b e4bd 0ca6 0abd
00000040: cc51 2cbe 2e20 8bbe 34b7 cdbc 781d 4a3e
00000050: d0ba 103d 05bb 883e 17b6 d5bd 2801 d3bc
00000060: 37cc 563e e3fe 6e3e a76d b0bd 1ade 66be
00000070: 0e8e 30bd 56df 003e c0bd 813e c756 d1bc
00000080: 5220 ecbc e373 27be c028 803e 6ec4 9ebe
00000090: 09e6 48be 55c6 4e3e 0905 31bd ab5e e13d
000000a0: 5cdd 843d 52e8 d1bd df5b 13bd 7a67 4cbe
000000b0: 6771 35bd cc80 f6bd 18a5 013e 5a16 9e3e
000000c0: 4282 67be df44 ba3d 69fc 7fbe 46d5 0dbd
000000d0: c333 8c3e 295c 1c3e ca9c a9be db87 893d
000000e0: f196 c7bd a630 853e 08a2 963e 9981 81bd
000000f0: a1e3 62bd 37d4 cb3d 95c4 0cbe 919a 643e
00000100: 71d9 29be 4909 f13d 648d 963d 5f81 f63c
00000110: 6598 bc3d ef64 4cbe d7f4 963e c953 1e3d
00000120: b4b9 1b3e e821 7dbe bf66 23be b3da ab3d
00000130: fce7 da3d 3145 93be 2119 12be 953f 8e3e
00000140: 5df8 97be 5316 343e fb8b 953e dd5a 86be
00000150: 4107 55be 5b0b 09be c403 29bc 770a 9a3e
00000160: 5c08 5b3e 0ede 943e

uniquetags f4 [3]
0.0 1.0 2.0
00000000: 0000 0000 0000 803f 0000 0040
