PA1 - Threshold Logic Units/letterModel.npz (npz, 50698 bytes, 3 tensors)

uniquetags f4 [26]
000000 00 00 00 00 00 00 80 3f 00 00 00 40 00 00 40 40
       0.0 1.0 2.0 3.0
000010 00 00 80 40 00 00 a0 40 00 00 c0 40 00 00 e0 40
       4.0 5.0 6.0 7.0
000020 00 00 00 41 00 00 10 41 00 00 20 41 00 00 30 41
       8.0 9.0 10.0 11.0
000030 00 00 40 41 00 00 50 41 00 00 60 41 00 00 70 41
       12.0 13.0 14.0 15.0
000040 00 00 80 41 00 00 88 41 00 00 90 41 00 00 98 41
       16.0 17.0 18.0 19.0
000050 00 00 a0 41 00 00 a8 41 00 00 b0 41 00 00 b8 41
       20.0 21.0 22.0 23.0
000060 00 00 c0 41 00 00 c8 41
       24.0 25.0

w f4 [16, 26]
000000 01 3c cd c0 cf 9d 8f bf 40 f5 28 bf 98 44 7c c0
       -6.4135747 -1.1220034 -0.6599922 -3.9416866
000010 01 34 18 c0 99 4b 3a c1 17 75 8f c0 92 08 8c bf
       -2.378174 -11.643456 -4.483043 -1.0940115
000020 2f 2a b6 be 6c 24 fe c0 5f e8 80 c0 cc 5d 29 3f
       -0.3557906 -7.941946 -4.0283656 0.6615875
000030 d0 d2 12 c0 20 bf 0f bf 72 24 5d bf 5b 75 b3 c0
       -2.294117 -0.5615101 -0.86383736 -5.6080756
000040 28 2f 06 c1 e6 08 bd c0 13 41 23 c1 73 7a ad c0
       -8.386513 -5.907336 -10.203387 -5.4211974
000050 fb 67 b1 c0 7a 9b 57 c0 e5 26 d6 c0 8d bf 17 3d
       -5.543943 -3.3688645 -6.692248 0.03704791
000060 b0 ab 3e c1 cb 9d 2f 3f f9 9d 3e c1 9d fa f9 bf
       -11.916916 0.6860015 -11.913568 -1.9529606
000070 f0 78 a6 bf ef d6 d4 c0 2f d8 82 c0 e6 8b b8 c1
       -1.3005657 -6.651237 -4.0888896 -23.06831
000080 c8 25 d2 c0 74 4d d9 bf a9 62 fe be 73 07 4e c1
       -6.567112 -1.6976762 -0.49684647 -12.876819
000090 5d 9e 01 c1 98 37 f0 3f c8 85 7d c0 ef eb 6b bf
       -8.101163 1.8766966 -3.9612904 -0.9215688
0000a0 83 87 d1 bf dc e3 12 c1 53 4d 61 c1 7b ba 18 c1
       -1.636948 -9.18063 -14.081378 -9.545527
0000b0 46 18 78 c1 14 a5 10 c1 f6 5e 15 c1 20 02 a6 c0
       -15.505926 -9.040302 -9.335684 -5.1877594
0000c0 67 a5 30 c1 47 2b 76 bd 24 2c 9e c1 50 64 65 3f
       -11.040381 -0.060099866 -19.771553 0.8960619
0000d0 ba bc 01 c1 b3 dc f2 bf 08 3d 8a bf b8 26 95 c0
       -8.108576 -1.8973602 -1.0799875 -4.6609764
0000e0 14 fb 5e c0 a5 f3 78 c1 3b a4 c9 c0 6c 62 cc bf
       -3.4840746 -15.559484 -6.3012977 -1.5967536
0000f0 4a db ba be 9c 5b 32 c1 91 a9 af c0 06 3c 63 3f
       -0.3649543 -11.147366 -5.489449 0.88763463
000100 f1 31 1f c0 b4 95 08 bf 9e f9 e7 bf 23 c9 fb c0
       -2.4874232 -0.5335343 -1.8123052 -7.868303
000110 44 ad 3c c1 03 1c 05 c1 e9 ae 65 c1 c7 2d e9 c0
       -11.792301 -8.319339 -14.355203 -7.286838
000120 ac 47 01 c1 8e 57 97 c0 d0 e2 13 c1 6e 52 b2 bd
       -8.079998 -4.729438 -9.242874 -0.087071285
000130 c3 63 89 c1 0c a9 3a 3f 68 6f 16 c1 dc dd c1 bf
       -17.173712 0.72914195 -9.402199 -1.5145831
000140 94 c9 71 bf f7 99 9a c0 bf d6 42 c0 6f 78 88 c1
       -0.9444821 -4.8312945 -3.044357 -17.058805
000150 03 45 aa c0 a5 44 db bf 5c 64 d3 be ed a8 21 c1
       -5.3209243 -1.7130324 -0.41287506 -10.103742
000160 59 c7 ce c0 60 78 94 3f 8a 95 4d c0 5b dc ed be
       -6.4618344 1.1599236 -3.2122521 -0.4645718
000170 92 2a c4 bf e0 63 e4 c0 06 35 29 c1 c0 2a f3 c0
       -1.5325491 -7.137192 -10.575445 -7.5989685
000180 a6 c6 44 c1 a1 0e e1 c0 95 b5 ee c0 c2 f5 6a c0
       -12.298498 -7.0330358 -7.459666 -3.6712499
000190 9d 57 07 c1 a5 40 28 bd 55 7c 76 c1 c9 a5 0e 3f
       -8.45889 -0.041077275 -15.4053545 0.5572172
0001a0 ea 08 ad c0 d8 3f 2c bf 70 72 cc be fd 26 84 c0
       -5.407338 -0.6728492 -0.3993106 -4.1297593
0001b0 64 26 e8 bf 23 89 1e c1 d9 3e 46 c0 a2 91 86 bf
       -1.8136716 -9.908481 -3.097586 -1.0513194
0001c0 3b 19 bc bd 7f 58 b7 c0 93 1f 48 c0 66 26 d7 3e
       -0.091845 -5.7295527 -3.1269271 0.42021483
0001d0 ce 24 b4 bf 9c be 08 be 74 00 fa be a3 07 6f c0
       -1.4073732 -0.13353962 -0.4882847 -3.734841
0001e0 3a 8c d1 c0 f8 51 88 c0 fe 9a ef c0 f4 70 82 c0
       -6.5483675 -4.260006 -7.48767 -4.076288
0001f0 f1 19 8e c0 f5 b8 0e c0 79 16 a2 c0 95 ff 62 be
       -4.4406667 -2.230039 -5.0652432 -0.2216781
000200 1e e1 10 c1 62 1d ec 3e cf b5 43 c1 26 3f 2f c0
       -9.05496 0.46116167 -12.231887 -2.7382293
000210 19 be cb bf d4 09 b7 c0 a1 4e 31 c0 6a c8 95 c1
       -1.5917388 -5.7199497 -2.7704241 -18.722858
000220 44 17 36 c1 bc d1 52 c0 12 75 78 bc ca cf 89 c1
       -11.38068 -3.2940512 -0.0151646305 -17.22646
000230 67 14 20 c1 a9 92 15 3f e7 6f 4a c0 ec 20 32 bf
       -10.004981 0.5842691 -3.16308 -0.69581485
000240 35 cd 46 c0 22 6e 50 c1 a3 d1 6d c1 48 c7 44 c1
       -3.1062748 -13.026888 -14.863681 -12.298653
000250 fd 0f 9c c1 9f d4 06 c1 72 d4 4f c1 93 ef be c0
       -19.507807 -8.426909 -12.989367 -5.966745
000260 e9 7e 53 c1 8e 24 83 be d8 87 ce c1 6e 2a 28 3f
       -13.218484 -0.25613827 -25.81633 0.6568974
000270 71 18 52 c1 9a 3f 1f c0 1a 03 0a bf 57 ac 93 c0
       -13.130967 -2.488257 -0.5391098 -4.6147876
000280 c3 b7 04 c0 9a a0 98 c1 af a8 5d c1 52 35 66 c0
       -2.073716 -19.078419 -13.8536825 -3.5970044
000290 93 44 9f be 20 95 9b c1 a4 38 11 c1 8e 17 03 3e
       -0.31107005 -19.447815 -9.076328 0.12801954
0002a0 c0 d6 70 c0 52 41 68 bf 6d c3 1e c0 b6 fc 39 c1
       -3.7631073 -0.9072467 -2.4806778 -11.624197
0002b0 ee 0a 6c c1 a1 9a 4f c1 a1 ce b4 c1 fb c5 23 c1
       -14.752668 -12.975251 -22.600893 -10.235835
0002c0 17 a8 47 c1 14 2c 13 c1 15 a0 6a c1 ea 5c 38 bf
       -12.478538 -9.198261 -14.664083 -0.72016776
0002d0 2d 46 d8 c1 e9 58 6c 3f bc 23 20 c1 d3 d5 c8 bf
       -27.034266 0.92323166 -10.008724 -1.5690254
0002e0 42 6e 1e bf 15 cf 4a c0 a1 31 72 bf b6 4e 3d c1
       -0.6188699 -3.1688893 -0.9460698 -11.831717
0002f0 41 84 df c0 d0 9b da bf 1c 4a 72 be d4 87 27 c1
       -6.9848943 -1.70788 -0.23661083 -10.470661
000300 37 91 e0 c0 05 14 e2 3e ed 27 28 c0 11 95 4e bf
       -7.0177264 0.441559 -2.6274369 -0.8069621
000310 30 2f ab bf 91 84 02 c1 67 5f 10 c1 8d 9d 07 c1
       -1.3373775 -8.157365 -9.023292 -8.475965
000320 ae 7f 52 c1 ea e3 d6 c0 19 06 00 c1 ca b3 95 c0
       -13.156172 -6.7153215 -8.001489 -4.678197
000330 b8 ec 02 c1 25 2f a5 be 1c f3 84 c1 2a 2d fb 3d
       -8.182793 -0.3226253 -16.618706 0.12264474
000340 84 84 34 c1 7f 76 c1 bf 78 10 68 bf 73 36 5e c0
       -11.282352 -1.5114287 -0.9065013 -3.4720733
000350 a8 26 25 c0 b5 a5 6a c1 49 68 ec c0 15 75 f7 bf
       -2.5804844 -14.665456 -7.38773 -1.9332606
000360 b8 f8 d0 be 46 a3 5e c1 a7 bd df c0 cd 40 c6 3f
       -0.40814757 -13.914862 -6.991901 1.5488526
000370 35 1d 73 c0 f8 e3 17 bf 79 fd 11 c0 55 3d 18 c1
       -3.7986577 -0.5933223 -2.2810957 -9.514974
000380 b3 91 4d c1 b9 b9 fb c0 66 d3 66 c1 8d ed d7 c0
       -12.848071 -7.866421 -14.426611 -6.747748
000390 ee 1f d5 c0 c0 6f 7a c0 2a ef 2e c1 02 62 d7 be
       -6.6601477 -3.9130707 -10.93339 -0.42066962
0003a0 8f 7c 94 c1 c9 a6 68 3f 5e 53 52 c1 85 a7 7e c0
       -18.56082 0.90879494 -13.145353 -3.9789746
0003b0 a7 12 b9 bf 4b 39 b5 c0 b3 72 51 c0 f2 4e 9c c1
       -1.4458817 -5.663244 -3.2726257 -19.538548
0003c0 5d ab 58 c1 af 8b 51 c0 32 83 0a be 3a 5c a3 c1
       -13.541837 -3.2741506 -0.1352661 -20.420033
0003d0 88 a8 2d c1 81 1d 0a 3f 7c d2 59 c0 ac fd 40 bf
       -10.853645 0.5395127 -3.403472 -0.7538707
0003e0 66 12 2d c0 f0 3d 61 c1 f8 f5 9e c1 a1 32 85 c1
       -2.704248 -14.077621 -19.870102 -16.649721
0003f0 c6 10 d8 c1 66 23 30 c1 56 8a 76 c1 41 a8 14 c1
       -27.00819 -11.008642 -15.408773 -9.291078

b f4 [12000, 1]
000000 d6 86 8d 3d e8 60 0c 3e 2a 81 3c 3e e2 c3 e0 bd
       0.069104835 0.13708842 0.18408647 -0.10974862
000010 9c c0 00 3e 2a 0d ad 3c 1e c5 73 3d 48 4a 26 bd
       0.12573475 0.021124441 0.059514157 -0.040598184
000020 56 09 37 bd c7 d7 21 3e 06 07 4b be b1 77 1d be
       -0.044686638 0.15804969 -0.19826898 -0.1537769
000030 09 06 d7 3d 33 d3 28 be 8f 4f 8a bd 0c b2 6f bd
       0.10499198 -0.16486816 -0.06753456 -0.058519408
000040 17 60 22 3e 84 05 09 3e a1 f5 27 3e 8b dc 3f 3e
       0.15856968 0.1338101 0.16402294 0.18736474
000050 46 8d 9b 3d a9 94 29 be db af 15 3e 71 34 a3 bd
       0.07595305 -0.16560616 0.14617865 -0.07968987
000060 33 0a 6a bd de 0c e9 3c 01 31 2a 3e 38 81 c6 bd
       -0.057138633 0.028448518 0.16620256 -0.09692615
000070 21 86 c3 bd 7a f4 9f 3d 1b 05 1d bd 12 9c 3b be
       -0.095470674 0.07810302 -0.038334947 -0.18321255
000080 45 96 47 be b8 c0 d9 bd 2a 44 03 3c 65 16 30 be
       -0.19490917 -0.10632461 0.008011857 -0.17196043
000090 48 b5 d1 bd 1e 0e b5 3c 0f 1f 0c be 37 71 4a be
       -0.10239655 0.022101458 -0.13683723 -0.1976975
0000a0 38 f2 df 3d 8d 49 06 3e 56 fe 4e bd 79 ee c4 3d
       0.109348714 0.13113995 -0.050535522 0.096157975
0000b0 05 de 47 3e 0e b0 c0 3d 1b e0 5d bc eb 94 81 3d
       0.19518287 0.0940858 -0.0135422 0.06327232
0000c0 a8 13 12 3d b5 32 0b 3e c2 ac 38 3e d2 14 13 3e
       0.035663277 0.13593562 0.18034652 0.14363411
0000d0 b4 81 19 3e 86 28 1a be a8 a9 d8 3d 34 49 b3 3d
       0.14990884 -0.15054521 0.10579234 0.08754197
0000e0 f5 f5 28 3e 16 4f bf 3c cd 50 87 3b 04 46 01 be
       0.16500075 0.02335314 0.0041295053 -0.12624365
0000f0 f0 39 8d 3c 21 bb fe bc 24 d2 62 3c 4a c6 51 3c
       0.01723954 -0.03109509 0.013844047 0.012803623
000100 a8 a2 2b be 77 2e 2e be 2b 35 d7 bc 2a 70 1e 3e
       -0.16761267 -0.17009912 -0.02627047 0.15472475
000110 0c ce 6a 3d 9e a0 37 be 6e 4d dc 3d a3 aa 30 3e
       0.057325408 -0.17932364 0.10756956 0.17252593
000120 99 f5 e2 bd 70 3a 2e be 03 ff 26 3e e3 82 b2 bd
       -0.11082 -0.1701448 0.16308217 -0.08716371
000130 e4 bb c7 bd 69 65 11 3e 6a b8 94 3d 05 ea 15 be
       -0.09752634 0.14198841 0.07261737 -0.14640053
000140 4a b8 c0 3d 8a af 92 bc 6e 02 1a 3e 69 c4 4b 3c
       0.0941015 -0.01790597 0.1503999 0.012436965
000150 0e e0 39 be 08 c6 30 3e 0f a3 a6 3d cd cc af bd
       -0.18151876 0.17263043 0.0813657 -0.085839845
000160 a1 71 4a 3e 64 d1 08 be e3 79 56 bd 07 e7 9d 3a
       0.19769908 -0.13361126 -0.052362334 0.0012047001
000170 ee 00 1e 3d 24 e1 20 be 91 8f 2b be 27 c2 0f 3e
       0.038575105 -0.15710884 -0.16753985 0.14038907
000180 53 ae f7 bd 60 6d b9 3d c7 a7 12 be 64 cb 10 bd
       -0.120937966 0.09054065 -0.14321814 -0.03535022
000190 9d a9 87 bd 73 f8 ba 3c 84 a9 40 3e 6d 73 d5 3c
       -0.06624148 0.022823548 0.18814665 0.026056016
0001a0 95 13 34 3e 33 d1 4a 3e 03 a8 f2 3d c7 d1 a9 bd
       0.17585595 0.19806366 0.11848452 -0.08291965
0001b0 1d d8 84 3c 2e 72 d6 3d 42 6c aa bd 66 ef c1 3d
       0.016216332 0.10470997 -0.0832143 0.0946949
0001c0 cc f9 24 3e 34 77 a6 bb ca cd 9c bd 05 01 17 3e
       0.16110915 -0.005080128 -0.07656439 0.14746483
0001d0 41 da c4 3c 3f cd 04 be cd 82 40 3e e6 46 47 bc
       0.024029853 -0.1296892 0.18799897 -0.0121629
0001e0 3f bf e3 bd 3b c8 32 be 34 11 1d be f8 87 35 be
       -0.11120462 -0.17459194 -0.15338594 -0.17727649
0001f0 bc 4e 5a 3c 2a f5 86 3d 16 b6 7c 3d 2c 90 36 3e
       0.013324436 0.0658973 0.06169709 0.17828435
000200 05 89 f6 bd 94 5a 1f 3e b1 49 b1 bb c2 54 4c be
       -0.12037853 0.15561897 -0.005410396 -0.19954208
000210 af 78 d0 3d 94 25 02 be b5 41 d3 3d 92 f7 8d 3d
       0.101792686 -0.12709647 0.10315267 0.06931986
000220 74 9d db 3d 2f 1d a3 3d 62 0b 5b 3d ad b7 1e be
       0.10723391 0.07964551 0.053477652 -0.15499754
000230 e8 3a 35 3e c0 2d f1 bd ca 6a 07 be 9e a0 c9 bb
       0.17698252 -0.11776304 -0.1322433 -0.0061531803
000240 01 0a d0 bd d9 00 65 3d 94 c5 e5 bd 84 fa 29 3e
       -0.10158158 0.05590901 -0.11219326 0.1659947
000250 6d eb a6 bd eb 03 2f be 00 4e 13 be 72 3a 3e bc
       -0.08150373 -0.17091338 -0.14385223 -0.011610614
000260 4a 4b 39 be e3 d1 c9 3c 48 c4 c8 bd 59 e9 c7 bd
       -0.18095127 0.024636215 -0.09803063 -0.097613044
000270 06 8b b6 bd a6 78 20 be 5a 78 c7 3d 4d 38 eb bd
       -0.08913235 -0.15671024 0.09739752 -0.11485348
000280 28 d3 11 be cf 67 e2 3d 93 8f 61 bd cc e1 47 bd
       -0.14240706 0.11054956 -0.055068564 -0.04879932
000290 7a 1f a2 bd f7 f3 92 3d d6 58 3f 3e 01 af f0 3d
       -0.0791616 0.07175439 0.18686232 0.11752129
0002a0 70 d1 26 be 87 2b ba bd 4d 94 22 bd a7 ba c3 3d
       -0.16290832 -0.090903334 -0.039692212 0.095570855
0002b0 27 0c 1b 3e 2e 98 bc bd 47 ef ab 3d cc cb 2e be
       0.15141355 -0.092087135 0.08395248 -0.1706993
0002c0 7a bf bf 3c 21 cb 2b 3e 7e 1b de 3d 0e 4d 38 3e
       0.023406733 0.16776706 0.108450875 0.17998144
0002d0 6d 33 51 3d 18 2e 3d 3e e3 6d 07 3c 4d 64 00 be
       0.051074434 0.18474615 0.008265945 -0.12538262
0002e0 19 48 c2 3d de f1 ea bd 0d a6 04 3d 1d 64 37 3c
       0.09486408 -0.11471914 0.03238492 0.011193302
0002f0 cf f0 4a 3e eb 4b 94 3d c0 2d c0 3d 9d f4 bf bd
       0.19818424 0.07241043 0.09383726 -0.09372828
000300 37 76 a4 3c ee c9 f9 bc f8 19 37 3e b9 60 49 be
       0.0200759 -0.030491795 0.17881 -0.19665803
000310 e8 a1 0c be f4 c0 b2 3d b1 e5 6e 3c 97 f5 c9 3b
       -0.13733637 0.08728209 0.01458113 0.00616331
000320 f4 10 f1 bd 3f 95 d6 bd ee 9b 9b 3d 97 29 a0 bc
       -0.11770812 -0.10477685 0.075981006 -0.019551082
000330 db ad b0 3c 59 72 8d bd 1d 5f 3e be 73 01 d1 3d
       0.021567276 -0.06906576 -0.1859097 0.102053545
000340 31 7f a8 3c 53 02 97 bd 07 5a 10 3e ca 62 e1 bd
       0.020568462 -0.0737349 0.14096843 -0.11005171
000350 df cc cf 3c fa df bd 3c fa 00 86 3d 53 6a 18 be
       0.025366245 0.02317809 0.06543155 -0.1488431
000360 bd 1b ff 3d d6 f7 30 be 9a aa 4c 3e 80 7a 21 bd
       0.124564625 -0.17282042 0.19986954 -0.039423466
000370 cd 20 4b be 85 8c 37 3e b2 85 1b be 94 9f 16 3d
       -0.19836731 0.17924698 -0.1518772 0.03677328
000380 fe 9a ba ba 6f 93 f8 3d ff ed 10 3e 47 82 1c 3e
       -0.0014236865 0.12137496 0.14153288 0.15284072
000390 73 7c 0b bd d0 90 0c 3e a6 f2 42 be 70 be ca 3d
       -0.03405423 0.13727117 -0.19037876 0.09899604
0003a0 42 b0 04 3e 79 d5 2c be fa 6c 4c 3e 7e 18 b3 3d
       0.12957862 -0.16878308 0.19963446 0.08744906
0003b0 06 1b c9 3d ac bf 92 3d c2 79 a4 3d 6d b8 39 be
       0.098196074 0.07165465 0.08031036 -0.18136759
0003c0 5b 39 ca 3d 22 01 39 3e a2 f2 0d 3d 51 71 08 bd
       0.09874221 0.18066838 0.03465522 -0.033311192
0003d0 6c 47 81 bc 81 03 91 3d 36 74 4b be 9b 3a 36 bb
       -0.015781127 0.070807464 -0.1986855 -0.0027805928
0003e0 8b 44 45 be 32 3d 3c 3e 96 ea 06 3e b3 d1 39 3e
       -0.19264428 0.18382719 0.13175425 0.181464
0003f0 9f 48 13 be b5 01 40 3e a1 9e a2 3d 35 8f 3d be
       -0.14383171 0.18750651 0.07940412 -0.1851166
